…
2025-08-12 19:27:47,602 | INFO | NumExpr defaulting to 16 threads.
2025-08-12 19:27:48,067 | INFO | TOTAL NOISY IMAGES: 160
2025-08-12 19:27:48,067 | INFO | TOTAL GROUND TRUTH IMAGES: 160
2025-08-12 19:27:50,276 | INFO | Dataset загружен из кэша: dataset_57d9c94ddad875fc.pkl.gz
2025-08-12 19:27:53,161 | INFO | Noisy input shape: (32, 18, 256, 256)
2025-08-12 19:27:53,161 | INFO | GT shape: (32, 3, 256, 256)
2025-08-12 19:27:55,369 | INFO | Size of training set: 512
2025-08-12 19:27:55,370 | INFO | Size of validation set: 64
2025-08-12 19:27:55,370 | INFO | Size of test set: 64
2025-08-12 19:27:55,389 | INFO | MODEL:
HalfUNet(
  (initial): Conv2d(18, 128, kernel_size=(1, 1), stride=(1, 1))
  (conv1): Sequential(
    (0): NAFBlock(
      (conv1): Conv2d(128, 256, kernel_size=(1, 1), stride=(1, 1))
      (conv2): Conv2d(256, 256, kernel_size=(3, 3), stride=(1, 1), padding=(1, 1), groups=256)
      (conv3): Conv2d(128, 128, kernel_size=(1, 1), stride=(1, 1))
      (sca): Sequential(
        (0): AdaptiveAvgPool2d(output_size=1)
        (1): Conv2d(128, 128, kernel_size=(1, 1), stride=(1, 1))
      )
      (sg): SimpleGate()
      (conv4): Conv2d(128, 256, kernel_size=(1, 1), stride=(1, 1))
      (conv5): Conv2d(128, 128, kernel_size=(1, 1), stride=(1, 1))
      (norm1): LayerNorm2d()
      (norm2): LayerNorm2d()
      (dropout1): Identity()
      (dropout2): Identity()
    )
    (1): NAFBlock(
      (conv1): Conv2d(128, 256, kernel_size=(1, 1), stride=(1, 1))
      (conv2): Conv2d(256, 256, kernel_size=(3, 3), stride=(1, 1), padding=(1, 1), groups=256)
      (conv3): Conv2d(128, 128, kernel_size=(1, 1), stride=(1, 1))
      (sca): Sequential(
        (0): AdaptiveAvgPool2d(output_size=1)
        (1): Conv2d(128, 128, kernel_size=(1, 1), stride=(1, 1))
      )
      (sg): SimpleGate()
      (conv4): Conv2d(128, 256, kernel_size=(1, 1), stride=(1, 1))
      (conv5): Conv2d(128, 128, kernel_size=(1, 1), stride=(1, 1))
      (norm1): LayerNorm2d()
      (norm2): LayerNorm2d()
      (dropout1): Identity()
      (dropout2): Identity()
    )
  )
  (pool1): MaxPool2d(kernel_size=2, stride=2, padding=0, dilation=1, ceil_mode=False)
  (conv2): Sequential(
    (0): NAFBlock(
      (conv1): Conv2d(128, 256, kernel_size=(1, 1), stride=(1, 1))
      (conv2): Conv2d(256, 256, kernel_size=(3, 3), stride=(1, 1), padding=(1, 1), groups=256)
      (conv3): Conv2d(128, 128, kernel_size=(1, 1), stride=(1, 1))
      (sca): Sequential(
        (0): AdaptiveAvgPool2d(output_size=1)
        (1): Conv2d(128, 128, kernel_size=(1, 1), stride=(1, 1))
      )
      (sg): SimpleGate()
      (conv4): Conv2d(128, 256, kernel_size=(1, 1), stride=(1, 1))
      (conv5): Conv2d(128, 128, kernel_size=(1, 1), stride=(1, 1))
      (norm1): LayerNorm2d()
      (norm2): LayerNorm2d()
      (dropout1): Identity()
      (dropout2): Identity()
    )
    (1): NAFBlock(
      (conv1): Conv2d(128, 256, kernel_size=(1, 1), stride=(1, 1))
      (conv2): Conv2d(256, 256, kernel_size=(3, 3), stride=(1, 1), padding=(1, 1), groups=256)
      (conv3): Conv2d(128, 128, kernel_size=(1, 1), stride=(1, 1))
      (sca): Sequential(
        (0): AdaptiveAvgPool2d(output_size=1)
        (1): Conv2d(128, 128, kernel_size=(1, 1), stride=(1, 1))
      )
      (sg): SimpleGate()
      (conv4): Conv2d(128, 256, kernel_size=(1, 1), stride=(1, 1))
      (conv5): Conv2d(128, 128, kernel_size=(1, 1), stride=(1, 1))
      (norm1): LayerNorm2d()
      (norm2): LayerNorm2d()
      (dropout1): Identity()
      (dropout2): Identity()
    )
  )
  (pool2): MaxPool2d(kernel_size=2, stride=2, padding=0, dilation=1, ceil_mode=False)
  (conv3): Sequential(
    (0): NAFBlock(
      (conv1): Conv2d(128, 256, kernel_size=(1, 1), stride=(1, 1))
      (conv2): Conv2d(256, 256, kernel_size=(3, 3), stride=(1, 1), padding=(1, 1), groups=256)
      (conv3): Conv2d(128, 128, kernel_size=(1, 1), stride=(1, 1))
      (sca): Sequential(
        (0): AdaptiveAvgPool2d(output_size=1)
        (1): Conv2d(128, 128, kernel_size=(1, 1), stride=(1, 1))
      )
      (sg): SimpleGate()
      (conv4): Conv2d(128, 256, kernel_size=(1, 1), stride=(1, 1))
      (conv5): Conv2d(128, 128, kernel_size=(1, 1), stride=(1, 1))
      (norm1): LayerNorm2d()
      (norm2): LayerNorm2d()
      (dropout1): Identity()
      (dropout2): Identity()
    )
    (1): NAFBlock(
      (conv1): Conv2d(128, 256, kernel_size=(1, 1), stride=(1, 1))
      (conv2): Conv2d(256, 256, kernel_size=(3, 3), stride=(1, 1), padding=(1, 1), groups=256)
      (conv3): Conv2d(128, 128, kernel_size=(1, 1), stride=(1, 1))
      (sca): Sequential(
        (0): AdaptiveAvgPool2d(output_size=1)
        (1): Conv2d(128, 128, kernel_size=(1, 1), stride=(1, 1))
      )
      (sg): SimpleGate()
      (conv4): Conv2d(128, 256, kernel_size=(1, 1), stride=(1, 1))
      (conv5): Conv2d(128, 128, kernel_size=(1, 1), stride=(1, 1))
      (norm1): LayerNorm2d()
      (norm2): LayerNorm2d()
      (dropout1): Identity()
      (dropout2): Identity()
    )
  )
  (conv_up3): Conv2d(128, 2048, kernel_size=(1, 1), stride=(1, 1), bias=False)
  (up3): PixelShuffle(upscale_factor=4)
  (conv_up2): Conv2d(128, 512, kernel_size=(1, 1), stride=(1, 1), bias=False)
  (up2): PixelShuffle(upscale_factor=2)
  (final_conv): Conv2d(128, 3, kernel_size=(1, 1), stride=(1, 1))
)
2025-08-12 19:27:55,391 | INFO | Total parameters: 1,043,971
2025-08-12 19:27:55,391 | INFO | Trainable parameters: 1,043,971
2025-08-12 19:27:59,691 | WARNING | /workspace/.local/lib/python3.11/site-packages/torchmetrics/utilities/prints.py:70: FutureWarning: Importing `spectral_angle_mapper` from `torchmetrics.functional` was deprecated and will be removed in 2.0. Import `spectral_angle_mapper` from `torchmetrics.image` instead.
…
