…
2025-08-15 17:36:16,480 | INFO | TOTAL GROUND TRUTH IMAGES: 160
2025-08-15 17:36:18,683 | INFO | Dataset загружен из кэша: dataset_57d9c94ddad875fc.pkl.gz
2025-08-15 17:36:21,639 | INFO | Noisy input shape: (32, 18, 256, 256)
2025-08-15 17:36:21,639 | INFO | GT shape: (32, 3, 256, 256)
2025-08-15 17:36:23,743 | INFO | Size of training set: 512
2025-08-15 17:36:23,743 | INFO | Size of validation set: 64
2025-08-15 17:36:23,743 | INFO | Size of test set: 64
2025-08-15 17:36:24,504 | INFO | MODEL:
UNet(
  (resize_fnc): Resize(size=(256, 256), interpolation=bilinear, max_size=None, antialias=True)
  (in_conv1): FirstFeature(
    (conv): Sequential(
      (0): Conv2d(18, 128, kernel_size=(1, 1), stride=(1, 1), bias=False)
      (1): LeakyReLU(negative_slope=0.01)
    )
  )
  (in_conv2): ConvBlock(
    (conv): Sequential(
      (0): Conv2d(128, 128, kernel_size=(3, 3), stride=(1, 1), padding=(1, 1), bias=False)
      (1): BatchNorm2d(128, eps=1e-05, momentum=0.1, affine=True, track_running_stats=True)
      (2): LeakyReLU(negative_slope=0.01, inplace=True)
      (3): Conv2d(128, 128, kernel_size=(3, 3), stride=(1, 1), padding=(1, 1), bias=False)
      (4): BatchNorm2d(128, eps=1e-05, momentum=0.1, affine=True, track_running_stats=True)
      (5): LeakyReLU(negative_slope=0.01, inplace=True)
    )
  )
  (enc_1): Encoder(
    (encoder): Sequential(
      (0): MaxPool2d(kernel_size=2, stride=2, padding=0, dilation=1, ceil_mode=False)
      (1): ConvBlock(
        (conv): Sequential(
          (0): Conv2d(128, 256, kernel_size=(3, 3), stride=(1, 1), padding=(1, 1), bias=False)
          (1): BatchNorm2d(256, eps=1e-05, momentum=0.1, affine=True, track_running_stats=True)
          (2): LeakyReLU(negative_slope=0.01, inplace=True)
          (3): Conv2d(256, 256, kernel_size=(3, 3), stride=(1, 1), padding=(1, 1), bias=False)
          (4): BatchNorm2d(256, eps=1e-05, momentum=0.1, affine=True, track_running_stats=True)
          (5): LeakyReLU(negative_slope=0.01, inplace=True)
        )
      )
    )
  )
  (enc_2): Encoder(
    (encoder): Sequential(
      (0): MaxPool2d(kernel_size=2, stride=2, padding=0, dilation=1, ceil_mode=False)
      (1): ConvBlock(
        (conv): Sequential(
          (0): Conv2d(256, 512, kernel_size=(3, 3), stride=(1, 1), padding=(1, 1), bias=False)
          (1): BatchNorm2d(512, eps=1e-05, momentum=0.1, affine=True, track_running_stats=True)
          (2): LeakyReLU(negative_slope=0.01, inplace=True)
          (3): Conv2d(512, 512, kernel_size=(3, 3), stride=(1, 1), padding=(1, 1), bias=False)
          (4): BatchNorm2d(512, eps=1e-05, momentum=0.1, affine=True, track_running_stats=True)
          (5): LeakyReLU(negative_slope=0.01, inplace=True)
        )
      )
    )
  )
  (enc_3): Encoder(
    (encoder): Sequential(
      (0): MaxPool2d(kernel_size=2, stride=2, padding=0, dilation=1, ceil_mode=False)
      (1): ConvBlock(
        (conv): Sequential(
          (0): Conv2d(512, 1024, kernel_size=(3, 3), stride=(1, 1), padding=(1, 1), bias=False)
          (1): BatchNorm2d(1024, eps=1e-05, momentum=0.1, affine=True, track_running_stats=True)
          (2): LeakyReLU(negative_slope=0.01, inplace=True)
          (3): Conv2d(1024, 1024, kernel_size=(3, 3), stride=(1, 1), padding=(1, 1), bias=False)
          (4): BatchNorm2d(1024, eps=1e-05, momentum=0.1, affine=True, track_running_stats=True)
          (5): LeakyReLU(negative_slope=0.01, inplace=True)
        )
      )
    )
  )
  (enc_4): Encoder(
    (encoder): Sequential(
      (0): MaxPool2d(kernel_size=2, stride=2, padding=0, dilation=1, ceil_mode=False)
      (1): ConvBlock(
        (conv): Sequential(
          (0): Conv2d(1024, 2048, kernel_size=(3, 3), stride=(1, 1), padding=(1, 1), bias=False)
          (1): BatchNorm2d(2048, eps=1e-05, momentum=0.1, affine=True, track_running_stats=True)
          (2): LeakyReLU(negative_slope=0.01, inplace=True)
          (3): Conv2d(2048, 2048, kernel_size=(3, 3), stride=(1, 1), padding=(1, 1), bias=False)
          (4): BatchNorm2d(2048, eps=1e-05, momentum=0.1, affine=True, track_running_stats=True)
          (5): LeakyReLU(negative_slope=0.01, inplace=True)
        )
      )
    )
  )
  (dec_1): Decoder(
    (conv): Sequential(
      (0): UpsamplingBilinear2d(scale_factor=2.0, mode='bilinear')
      (1): Conv2d(2048, 1024, kernel_size=(1, 1), stride=(1, 1), bias=False)
      (2): BatchNorm2d(1024, eps=1e-05, momentum=0.1, affine=True, track_running_stats=True)
      (3): LeakyReLU(negative_slope=0.01)
    )
    (conv_block): ConvBlock(
      (conv): Sequential(
        (0): Conv2d(2048, 1024, kernel_size=(3, 3), stride=(1, 1), padding=(1, 1), bias=False)
        (1): BatchNorm2d(1024, eps=1e-05, momentum=0.1, affine=True, track_running_stats=True)
        (2): LeakyReLU(negative_slope=0.01, inplace=True)
        (3): Conv2d(1024, 1024, kernel_size=(3, 3), stride=(1, 1), padding=(1, 1), bias=False)
        (4): BatchNorm2d(1024, eps=1e-05, momentum=0.1, affine=True, track_running_stats=True)
        (5): LeakyReLU(negative_slope=0.01, inplace=True)
      )
    )
  )
  (dec_2): Decoder(
    (conv): Sequential(
      (0): UpsamplingBilinear2d(scale_factor=2.0, mode='bilinear')
      (1): Conv2d(1024, 512, kernel_size=(1, 1), stride=(1, 1), bias=False)
      (2): BatchNorm2d(512, eps=1e-05, momentum=0.1, affine=True, track_running_stats=True)
      (3): LeakyReLU(negative_slope=0.01)
    )
    (conv_block): ConvBlock(
      (conv): Sequential(
        (0): Conv2d(1024, 512, kernel_size=(3, 3), stride=(1, 1), padding=(1, 1), bias=False)
        (1): BatchNorm2d(512, eps=1e-05, momentum=0.1, affine=True, track_running_stats=True)
        (2): LeakyReLU(negative_slope=0.01, inplace=True)
        (3): Conv2d(512, 512, kernel_size=(3, 3), stride=(1, 1), padding=(1, 1), bias=False)
        (4): BatchNorm2d(512, eps=1e-05, momentum=0.1, affine=True, track_running_stats=True)
        (5): LeakyReLU(negative_slope=0.01, inplace=True)
      )
    )
  )
  (dec_3): Decoder(
    (conv): Sequential(
      (0): UpsamplingBilinear2d(scale_factor=2.0, mode='bilinear')
      (1): Conv2d(512, 256, kernel_size=(1, 1), stride=(1, 1), bias=False)
      (2): BatchNorm2d(256, eps=1e-05, momentum=0.1, affine=True, track_running_stats=True)
      (3): LeakyReLU(negative_slope=0.01)
    )
    (conv_block): ConvBlock(
      (conv): Sequential(
        (0): Conv2d(512, 256, kernel_size=(3, 3), stride=(1, 1), padding=(1, 1), bias=False)
        (1): BatchNorm2d(256, eps=1e-05, momentum=0.1, affine=True, track_running_stats=True)
        (2): LeakyReLU(negative_slope=0.01, inplace=True)
        (3): Conv2d(256, 256, kernel_size=(3, 3), stride=(1, 1), padding=(1, 1), bias=False)
        (4): BatchNorm2d(256, eps=1e-05, momentum=0.1, affine=True, track_running_stats=True)
        (5): LeakyReLU(negative_slope=0.01, inplace=True)
      )
    )
  )
  (dec_4): Decoder(
    (conv): Sequential(
      (0): UpsamplingBilinear2d(scale_factor=2.0, mode='bilinear')
      (1): Conv2d(256, 128, kernel_size=(1, 1), stride=(1, 1), bias=False)
      (2): BatchNorm2d(128, eps=1e-05, momentum=0.1, affine=True, track_running_stats=True)
      (3): LeakyReLU(negative_slope=0.01)
    )
    (conv_block): ConvBlock(
      (conv): Sequential(
        (0): Conv2d(256, 128, kernel_size=(3, 3), stride=(1, 1), padding=(1, 1), bias=False)
        (1): BatchNorm2d(128, eps=1e-05, momentum=0.1, affine=True, track_running_stats=True)
        (2): LeakyReLU(negative_slope=0.01, inplace=True)
        (3): Conv2d(128, 128, kernel_size=(3, 3), stride=(1, 1), padding=(1, 1), bias=False)
        (4): BatchNorm2d(128, eps=1e-05, momentum=0.1, affine=True, track_running_stats=True)
        (5): LeakyReLU(negative_slope=0.01, inplace=True)
      )
    )
  )
  (out_conv): FinalOutput(
    (conv): Sequential(
      (0): Conv2d(128, 3, kernel_size=(1, 1), stride=(1, 1), bias=False)
      (1): Tanh()
    )
  )
)
2025-08-15 17:36:24,506 | INFO | Total parameters: 115,914,112
2025-08-15 17:36:24,506 | INFO | Trainable parameters: 115,914,112
2025-08-15 17:36:24,513 | INFO | Profiler schedule: wait=1, warmup=1, active=16, repeat=1
2025-08-15 17:36:59,256 | INFO | ⏱ Epoch 001 duration: 34.75s | total elapsed: 0.58 min
2025-08
…
